Trump Tweet Classification/Trump_Tweets_Identifier/Trump_Tweet.pth (torch, 11319 bytes, 7 tensors)

weight_ih_l0 f4 [30, 50]
0.19845195 0.23190974 -0.05544189 0.018160278 0.14568803 0.40110672 -0.38202882 -0.42562592
0.01010269 0.15122814 -0.2988518 -0.00610012 -0.18841326 0.106350996 0.14182729 0.33693093
0.11525011 0.2306305 -0.26392823 -0.29821986 0.2169348 0.2843794 -0.1624292 0.28123406
0.26847488 -0.4103693 0.10884811 0.29585636 0.25982717 -0.25596958 0.59245056 0.22394733
-0.28986144 0.11357231 -0.1493646 -0.22342041 -0.17641008 0.03471549 0.117164984 0.096231736
-0.39468983 0.23664138 0.060265385 0.05689436 -0.26918858 -0.307053 0.05929025 0.086112015
-0.083944455 -0.1963908 0.14190604 -0.13889945 -0.17888308 0.12216629 -0.0026442192 0.10410739
-0.39607328 -0.16379036 0.039307937 -0.012047109 0.25032282 0.040036112 -0.1218557 -0.146075
0.05541266 0.10942524 0.055775173 0.4556604 -0.3509763 -0.3113256 0.34713644 -0.09258649
0.22385332 0.3323566 0.14192626 -0.017356155 -0.16696534 -0.1623933 0.23222192 -0.08329965
0.29471073 0.10549103 -0.116627514 -0.0759307 0.0727472 0.008156534 0.13084327 -0.24600872
0.07634265 -0.35894907 -0.29286695 -0.16630515 0.2209253 0.3400492 -0.3603396 -0.088121004
0.08746816 -0.16591308 0.11072947 0.013081564 0.0035585451 -0.037719727 -0.06883937 -0.2721797
0.16594319 -0.1777568 0.070608966 -0.12874432 -0.0063625104 0.17150162 -0.1584873 0.13350827
-0.032341696 -0.19463378 0.2207223 -0.22621089 -0.17213002 0.31095234 0.021584352 -0.3268065
-0.24678287 0.07878808 0.15322374 0.18150198 0.23446877 0.05962 -0.25960866 -0.1133183
0.085585564 0.034455888 0.48039165 -0.09526824 -0.2025941 0.085246004 0.22025184 -0.025956836
0.17367436 0.08442624 0.031276245 -0.31643012 -0.03632517 -0.10279291 0.059220698 0.2678608
-0.032091655 0.07922439 0.012872036 -0.20976546 -0.0034893616 -0.037423152 -0.06942129 0.199171
0.16847971 0.011724841 0.14712787 0.15834065 0.023991404 -0.08605982 -0.19273333 0.037550993
-0.049843557 -0.02064303 0.03738571 -0.06298488 0.10876027 -0.037385575 -0.050286014 0.072124854
-0.112412356 -0.11567853 0.0037799694 0.1332131 0.22581227 0.12593006 0.13213237 -0.24030516
-0.04362569 -0.23098193 0.19319981 -0.024124205 0.539462 0.14959326 -0.0032609291 0.10374009
0.007209753 0.048790455 -0.06823651 -0.06469274 0.17557575 -0.15840743 0.050313096 0.02824642
0.0016121375 0.15449554 -0.02236204 0.07585812 -0.16437212 0.06323712 -0.05961983 0.12845334
0.19377017 0.2748345 -0.024046844 -0.25557458 0.43416113 -0.2515801 -0.23628698 -0.3248811
0.050869286 0.112111665 -0.10734497 0.402689 -0.061834816 -0.25337845 0.49303657 0.043292634
-0.10549554 0.47191432 -0.066674456 -0.11424139 -0.14156407 0.16895545 0.35492906 0.25230688
-0.16727836 0.04778472 -0.13991962 -0.08848915 -0.07262512 -0.013417023 0.44720593 0.12568858
0.05007487 0.03653076 -0.055906147 -0.07956354 0.36767283 0.23846105 0.12254747 -0.18532304
0.10994619 0.040237926 0.12844822 0.1200468 0.035351202 -0.107404925 0.062321987 -0.44212356
0.2872367 -0.037020274 -0.046809513 0.11781106 0.03329371 -0.14218615 0.046888214 0.09670151
00000000: fd36 4b3e bf79 6d3e 0917 63bd ddc4 943c
00000010: 3e2f 153e dc5d cd3e 4899 c3be a4eb d9be
00000020: c185 253c 8ddb 1a3e 1a03 99be 84e3 c7bb
00000030: 68ef 40be 8dce d93d 2c3b 113e 3682 ac3e
00000040: 4008 ec3d 672a 6c3e 9a21 87be 46b0 98be
00000050: 2824 5e3e 2d9a 913e d753 26be e9fd 8f3e
00000060: 8a75 893e ed1b d2be c2eb de3d 7c7a 973e
00000070: 1108 853e 720e 83be d7aa 173f 7352 653e
00000080: b868 94be 9998 e83d 09f3 18be 52c8 64be
00000090: d8a4 34be d431 0e3d 32f4 ef3d 2515 c53d
000000a0: c914 cabe 1e52 723e d6d8 763d 0f0a 693d
000000b0: 16d3 89be 0d36 9dbe 55da 723d 7f5b b03d
000000c0: 12eb abbd ab1a 49be d14f 113e a83b 0ebe
000000d0: 202d 37be 5232 fa3d a34a 2dbb 4136 d53d
000000e0: 1eca cabe a9b8 27be 5c01 213d 3d61 45bc
000000f0: 502a 803e e8fc 233d 7b8f f9bd af94 15be
00000100: 63f8 623d 571a e03d 8274 643d 524c e93e
00000110: 2ab3 b3be 1266 9fbe debb b13e fc9d bdbd
00000120: ce39 653e a52a aa3e 1e55 113e 7f2e 8ebc
00000130: f6f8 2abe 6e4a 26be 95cb 6d3e 0299 aabd
00000140: 53e4 963e ae0b d83d 68da eebd 8e81 9bbd
00000150: 7cfc 943d fca2 053c c7fb 053e b6e9 7bbe
00000160: 8959 9c3d 2cc8 b7be a8f2 95be e64b 2abe
00000170: 3e3a 623e ee1a ae3e 6f7e b8be c978 b4bd
00000180: 8222 b33d 1ee5 29be 22c6 e23d 0e54 563c
00000190: 7b36 693b 0080 1abd a8fb 8cbd 235b 8bbe
000001a0: 03ed 293e e105 36be 6f9b 903d 8dd5 03be
000001b0: 9b7c d0bb 1f9e 2f3e 7f4a 22be 64b6 083e
000001c0: ba78 04bd 144e 47be 0705 623e d4a3 67be
000001d0: da42 30be 2535 9f3e abd1 b03c 2e53 a7be
000001e0: a6b4 7cbe a55b a13d afe6 1c3e a8db 393e
000001f0: 9518 703e 1a34 743d 6deb 84be 6d13 e8bd
00000200: 7c47 af3d 9e21 0d3d e5f5 f53e ff1b c3bd
00000210: d474 4fbe 7595 ae3d b389 613e 6ea3 d4bc
00000220: b1d7 313e aae7 ac3d 851b 003d 2103 a2be
00000230: b4c9 14bd 1785 d2bd 6791 723d 0d25 893e
00000240: 8a72 03bd 6640 a23d 3be5 523c c2cc 56be
00000250: c6ad 64bb 0549 19bd c02c 8ebd 7cf3 4b3e
00000260: f285 2c3e 8c19 403c b0a8 163e 0d24 223e
00000270: 9f89 c43c 2240 b0bd e35b 45be 12cf 193d
00000280: c228 4cbd 921b a9bc c221 193d 37fe 80bd
00000290: b4bd de3d 9e21 19bd b5f8 4dbd 32b6 933d
000002a0: 7338 e6bd dde8 ecbd 5db9 773b 0469 083e
000002b0: 553b 673e cff3 003e b54d 073e 8e12 76be
000002c0: dab0 32bd 8786 6cbe 2cd6 453e 20a0 c5bc
000002d0: 2e1a 0a3f fa2e 193e 50b5 55bb af75 d43d
000002e0: cb3f ec3b 80d8 473d 95bf 8bbd a17d 84bd
000002f0: 21ca 333e 8f35 22be 1b15 4e3d 0965 e73c
00000300: 5c4e d33a 1434 1e3e 9930 b7bc 815b 9b3d
00000310: 2a51 28be 7782 813d ec33 74bd 4689 033e
00000320: b06b 463e 1cb7 8c3e e3fd c4bc acda 82be
00000330: 5e4a de3e 1bcf 80be 37f5 71be d156 a6be
00000340: 505c 503d cd9a e53d aed7 dbbd 412d ce3e
00000350: 8146 7dbd d2ba 81be 4a6f fc3e 9e53 313d
00000360: 0c0e d8bd c19e f13e 9e8c 88bd 64f7 e9bd
00000370: 2cf6 10be a802 2d3e 43b9 b53e 5e2e 813e
00000380: 054b 2bbe e9b9 433d 1747 0fbe cd39 b5bd
00000390: 7bbc 94bd 13d3 5bbc 2df8 e43e 82b4 003e
000003a0: 4f1b 4d3d 47a1 153d d8fd 64bd 36f2 a2bd
000003b0: 9d3f bc3e 222f 743e 2bfa fa3d 53c5 3dbe
000003c0: 782b e13d 86d0 243d ee87 033e 19db f53d
000003d0: 6ccc 103d 1df7 dbbd 5745 7f3d 055e e2be
000003e0: b010 933e 92a2 17bd 55bb 3fbd ed46 f13d
000003f0: fc5e 083d 3f99 11be db0d 403d 710b c63d

weight_hh_l0 f4 [30, 10]
0.21800889 0.0034918801 0.04475376 -0.20846096 -0.14113663 -0.057238515 0.26631147 0.13717245
-0.08454968 -0.22134198 -0.21132647 0.10453723 0.25081274 -0.17800543 -0.044674046 -0.16874914
0.13224186 -0.052129086 -0.011093506 -0.19506948 -0.11945186 0.08928092 -0.17209344 -0.067583375
-0.12696818 -0.051835254 -0.11222932 0.030613804 -0.039227203 0.053113785 -0.21592641 -0.15582287
0.09552439 0.21337202 0.1053171 -0.22954577 -0.17402282 -0.19804974 -0.12676214 0.0028931948
0.06589031 -0.15724324 0.14520149 0.0146992495 -0.03502191 -0.26417765 -0.045517754 -0.031150032
-0.07759376 -0.2982116 -0.2421021 -0.0650502 0.34145656 0.4165108 0.07991963 -0.104755275
-0.33220282 -0.2865492 -0.15579705 -0.035076752 0.43707925 0.09321741 -0.10231122 0.07056874
0.37070468 -0.23167619 -0.3858035 0.06550064 -0.29091036 -0.11663377 -0.2187741 -0.01671059
0.052943658 -0.06896507 0.306947 -0.3318054 -0.12928209 -0.11797975 -0.15351944 -0.19589093
0.39010102 -0.6096753 -0.2743241 -0.41701135 -0.26951373 -0.28991818 -0.020767953 0.16999504
-0.07608589 -0.08517238 -0.10082363 0.15630385 0.34741464 -0.028747033 0.29583594 -0.30506212
-0.66398084 0.3671067 -0.013133119 -0.38262486 -0.2753334 0.18950719 -0.078385234 -0.13989815
0.18037017 -0.49186873 0.041753817 0.0040680277 -0.036918223 -0.15818954 -0.043042343 0.004912613
-0.12525654 -0.10908992 0.17372519 -0.5279737 0.28494063 0.38808304 0.07816623 0.34927773
-0.036292586 0.27242804 -0.0600234 -0.21550679 0.15129466 -0.3647045 0.49933198 -0.043935888
-0.21518406 0.36974165 -0.09138507 0.2419192 -0.37138012 -0.49692246 -0.097858764 0.095133804
0.26753992 0.0019024718 0.22697186 0.3397374 -0.2011246 0.11245902 -0.03396862 -0.01987088
-0.099211216 0.03019171 0.28333583 -0.28693295 0.17926452 0.28633553 -0.087693974 -0.14211996
-0.43273336 -0.1506397 -0.2776028 0.051291134 -0.24314658 0.21223916 -0.019436494 0.07983579
-0.42678592 -0.06715422 0.5058441 -0.08664941 0.23716505 -0.58308434 0.2958923 0.06340235
-0.444072 0.14926429 -0.17397253 0.07911251 -0.0028675685 0.08892326 0.21655723 0.3145169
0.001768158 -0.100193836 0.20391846 0.57870406 -0.552788 0.50139064 0.079280004 0.17021006
0.058596987 0.2493754 0.016430957 -0.14427274 0.062628016 0.10481466 -0.1480965 0.19266528
0.055400204 -0.0756885 0.22246222 -0.25815278 0.11922981 -0.080616 -0.3107076 -0.26627412
0.40878296 -0.12461054 -0.18830574 -0.19312309 -0.10936536 -0.111666925 -0.6543993 0.4029746
-0.316745 -0.4935559 -0.65219945 0.56267977 -0.24689628 0.2707939 0.24851078 0.024865823
0.5027129 -0.18362515 -0.06078258 0.44266227 -0.43846104 0.08313382 0.03162188 -0.01786168
0.5650803 0.20317645 0.46083435 -0.32419717 -0.38431197 0.3670226 -0.55433166 0.27249837
0.3305311 0.2989437 0.3779973 0.020418806 0.61747855 -0.13344318 0.14576666 0.7652076
-0.29458606 0.43740538 0.29444864 -0.08068969 0.35660884 0.32852668 0.47431415 -0.18244787
0.022673948 0.7207423 -0.4756397 0.16726351 -0.058318727 -0.048791114 0.17992675 0.39401194
00000000: b93d 5f3e 07d8 643b b84f 373d ca76 55be
00000010: 1f86 10be ef72 6abd fa59 883e ef76 0c3e
00000020: 6228 adbd 79a7 62be f765 58be 9e17 d63d
00000030: 876a 803e 0e47 36be 22fc 36bd 93cc 2cbe
00000040: 696a 073e 4f85 55bd 89c1 35bc 4bc0 47be
00000050: 2da3 f4bd ead8 b63d 4339 30be 2769 8abd
00000060: f203 02be 3451 54bd 7cd8 e5bd cdc9 fa3c
00000070: b4ac 20bd d78d 593d d01b 5dbe 0890 1fbe
00000080: 4ba2 c33d 327e 5a3e 7eb0 d73d 0c0e 6bbe
00000090: 0a33 32be 8dcd 4abe efcd 01be c19b 3d3b
000000a0: 80f1 863d 5f04 21be b3af 143e 1fd5 703c
000000b0: 2273 0fbd 4b42 87be d370 3abd 5a2e ffbc
000000c0: 7ae9 9ebd 31af 98be 9de9 77be 0a39 85bd
000000d0: 65d3 ae3e e740 d53e e7ac a33d ef89 d6bd
000000e0: 7d16 aabe 94b6 92be 4389 1fbe a4ac 0fbd
000000f0: dac8 df3e c5e8 be3d 8b88 d1bd 5886 903d
00000100: 01cd bd3e 863c 6dbe 0988 c5be 3325 863d
00000110: 34f2 94be b0dd eebd 5106 60be a6e4 88bc
00000120: 73db 583d 8f3d 8dbd 2828 9d3e 66e2 a9be
00000130: 8662 04be 5e9f f1bd 3334 1dbe a297 48be
00000140: 52bb c73e ae13 1cbf 3574 8cbe 8382 d5be
00000150: b4fd 89be 2870 94be 8e21 aabc 2e13 2e3e
00000160: ebd2 9bbd db6e aebd 9f7c cebd 1e0e 203e
00000170: 55e0 b13e e67e ebbc cf77 973e 1a31 9cbe
00000180: a6fa 29bf 69f5 bb3e 4b2c 57bc 68e7 c3be
00000190: 80f8 8cbe 2c0e 423e 7088 a0bd 7641 0fbe
000001a0: f5b2 383e 38d6 fbbe 0d06 2b3d 174d 853b
000001b0: 9037 17bd 70fc 21be 2b4d 30bd fcf9 a03b
000001c0: 4043 00be 896a dfbd 04e5 313e 4929 07bf
000001d0: bde3 913e d2b2 c63e 9e15 a03d 88d4 b23e
000001e0: 89a7 14bd b07b 8b3e 19db 75bd d0ad 5cbe
000001f0: fdec 1a3e 8cba babe 71a8 ff3e 1ef6 33bd
00000200: 3659 5cbe c74e bd3e 1828 bbbd abb9 773e
00000210: 8925 bebe 9f6c febe 2d6a c8bd 83d5 c23d
00000220: fefa 883e 5c5c f93a 506b 683e 0ff2 ad3e
00000230: 9bf3 4dbe ea50 e63d ae22 0bbd 41c8 a2bc
00000240: 402f cbbd 9b54 f73c 6511 913e e0e8 92be
00000250: 1e91 373e 929a 923e e698 b3bd e587 11be
00000260: 3a8f ddbe 4b41 1abe f421 8ebe a716 523d
00000270: 6bfb 78be 3955 593e 4839 9fbc f280 a33d
00000280: af83 dabe 2788 89bd 007f 013f 3f75 b1bd
00000290: 65db 723e 0445 15bf 327f 973e 17d9 813d
000002a0: 685d e3be bdd8 183e db25 32be bd05 a23d
000002b0: d1ed 3bbb 661d b63d 2ec1 5d3e 5c08 a13e
000002c0: 8ac1 e73a 6d32 cdbd 00d0 503e f325 143f
000002d0: 8483 0dbf 235b 003f 8e5d a23d 8c4b 2e3e
000002e0: 6503 703d 445c 7f3e 379a 863c 3cbc 13be
000002f0: 1e43 803d 12a9 d63d 9ca6 17be 0c4a 453e
00000300: 53eb 623d 9302 9bbd 23cd 633e 9a2c 84be
00000310: c22e f43d 001a a5bd 1115 9fbe 1555 88be
00000320: 004c d13e d033 ffbd 38d3 40be 0fc2 45be
00000330: f2fa dfbd a1b1 e4bd b686 27bf b052 ce3e
00000340: 672c a2be 5cb3 fcbe 8bf6 26bf c80b 103f
00000350: 61d2 7cbe 80a5 8a3e 9c79 7e3e 69b3 cb3c
00000360: cbb1 003f 3b08 3cbe 28f7 78bd a1a4 e23e
00000370: f77d e0be 1042 aa3d f285 013d a852 92bc
00000380: 1aa9 103f 7d0d 503e 7bf2 eb3e 2cfd a5be
00000390: 8ac4 c4be 63ea bb3e aee8 0dbf e884 8b3e
000003a0: 5f3b a93e 260f 993e dd88 c13e 5745 a73c
000003b0: 1313 1e3f 54a5 08be db43 153e a5e4 433f
000003c0: fcd3 96be 99f3 df3e f9c1 963e a340 a5bd
000003d0: 6f95 b63e a634 a83e 4ed9 f23e 9dd3 3abe
000003e0: b7be b93c 9182 383f 0c87 f3be 2047 2b3e
000003f0: 9edf 6ebd 31d9 47bd b83e 383e efbb c93e

bias_ih_l0 f4 [30]
0.22661333 0.28336433 0.34773287 0.45415157 0.13512777 0.31414884 0.5371399 0.12419061
0.12882788 0.5619675 0.3081558 -0.1457927 0.18692385 -0.008432889 -0.18197863 -0.17535202
0.2721166 -0.23957309 -0.5946825 0.20715015 0.32705024 -0.30874684 0.083176576 0.0043604095
0.07358656 -0.22029918 -0.26093388 -0.111960895 -0.3142543 -0.33747354
00000000: 530d 683e 2115 913e 0b0a b23e 8e86 e83e
00000010: ef5e 0a3e 1ed8 a03e 0082 093f a657 fe3d
00000020: 75eb 033e 1add 0f3f 99c6 9d3e ae4a 15be
00000030: f768 3f3e 1a2a 0abc 9b58 3abe 7b8f 33be
00000040: de52 8b3e a652 75be 1d3d 18bf 2b1f 543e
00000050: 2173 a73e 1114 9ebe 7b58 aa3d c4e1 8e3b
00000060: 8db4 963d 1c96 61be 2099 85be c14b e5bd
00000070: f1e5 a0be 55c9 acbe

bias_hh_l0 f4 [30]
0.037549824 0.38946557 0.44918242 0.42094693 0.28314665 0.44808048 0.7444931 0.49008143
0.116844326 0.52309906 0.3183136 -0.09400086 0.38312754 -0.09406925 0.3438984 -0.42830887
0.31086022 0.040982325 -0.24709655 -0.049600087 -0.21779312 -0.12257727 -0.032444157 -0.007731042
0.060311936 -0.2917258 -0.44113714 -0.01947775 0.080428034 -0.41611475
00000000: d8cd 193d 0868 c73e 3dfb e53e 5b86 d73e
00000010: 99f8 903e ce6a e53e 1a97 3e3f f4eb fa3e
00000020: 144c ef3d d2e9 053f 00fa a23e 8683 c0bd
00000030: 4b29 c43e 61a7 c0bd 7313 b03e 4d4b dbbe
00000040: 1229 9f3e 15dd 273d e106 7dbe 7629 4bbd
00000050: 2905 5fbe cb09 fbbd 2ae4 04bd ae54 fdbb
00000060: a609 773d 165d 95be badc e1be cd8f 9fbc
00000070: 74b7 a43d fe0c d5be

weight f4 [2, 10]
-0.80253315 1.0595134 1.0345924 1.0072784 1.0443326 0.927616 1.1251532 -1.1163291
-0.63997436 0.8502152 0.95854324 -0.73789203 -1.22478 -0.9949246 -0.92130965 -0.4653115
-0.967065 1.1128656 0.7650925 -0.79344696
00000000: d072 4dbf 239e 873f 866d 843f 80ee 803f
00000010: b1ac 853f 3e78 6d3f 0505 903f dfe3 8ebf
00000020: 5cd5 23bf b4a7 593f 1763 753f 7ee6 3cbf
00000030: 97c5 9cbf 61b3 7ebf f3da 6bbf 4f3d eebe
00000040: 9291 77bf 6172 8e3f 1add 433f 571f 4bbf

bias f4 [2]
-0.08012041 0.29554656
00000000: 2b16 a4bd e151 973e

weight f4 [1, 2]
-2.2116315 2.605935
00000000: 5f8b 0dc0 a4c7 2640
